C:\Anaconda2\envs\deeplearning\python.exe C:/Dev/conditional-image-generation/convolution.py
Using Theano backend.
Using cuDNN version 5110 on context None
Mapped name None to device cuda: GeForce GTX 1070 (0000:01:00.0)
_________________________________________________________________
Layer (type)                 Output Shape              Param #   
=================================================================
input_1 (InputLayer)         (None, 64, 64, 3)         0         
_________________________________________________________________
conv2d_1 (Conv2D)            (None, 64, 64, 16)        448       
_________________________________________________________________
activation_1 (Activation)    (None, 64, 64, 16)        0         
_________________________________________________________________
conv2d_2 (Conv2D)            (None, 64, 64, 32)        4640      
_________________________________________________________________
activation_2 (Activation)    (None, 64, 64, 32)        0         
_________________________________________________________________
conv2d_3 (Conv2D)            (None, 64, 64, 32)        9248      
_________________________________________________________________
activation_3 (Activation)    (None, 64, 64, 32)        0         
_________________________________________________________________
conv2d_4 (Conv2D)            (None, 64, 64, 16)        4624      
_________________________________________________________________
activation_4 (Activation)    (None, 64, 64, 16)        0         
_________________________________________________________________
conv2d_5 (Conv2D)            (None, 64, 64, 3)         435       
=================================================================
Total params: 19,395
Trainable params: 19,395
Non-trainable params: 0
_________________________________________________________________
Train on 82611 samples, validate on 40438 samples
Epoch 1/100
82611/82611 [==============================] - 598s - loss: 0.5861 - acc: 0.0208 - val_loss: 0.5653 - val_acc: 0.0213
Epoch 2/100
…
