…
.....................................................x...............................s...................................x....................................s........ss.ss..................ss..................................................................................sss..............................................................x....x........................x.....x......................................ssssssssss...............
----------------------------------------------------------------------
Ran 439 tests in 1.384s

OK (skipped=21, expected failures=6)
_________________________________________________________________
Layer (type)                 Output Shape              Param #   
=================================================================
input_1 (InputLayer)         (None, 64, 64, 3)         0         
_________________________________________________________________
conv2d_1 (Conv2D)            (None, 64, 64, 16)        448       
_________________________________________________________________
activation_1 (Activation)    (None, 64, 64, 16)        0         
_________________________________________________________________
conv2d_2 (Conv2D)            (None, 64, 64, 16)        2320      
_________________________________________________________________
activation_2 (Activation)    (None, 64, 64, 16)        0         
_________________________________________________________________
max_pooling2d_1 (MaxPooling2 (None, 32, 32, 16)        0         
_________________________________________________________________
conv2d_3 (Conv2D)            (None, 32, 32, 32)        4640      
_________________________________________________________________
activation_3 (Activation)    (None, 32, 32, 32)        0         
_________________________________________________________________
conv2d_4 (Conv2D)            (None, 32, 32, 32)        9248      
_________________________________________________________________
activation_4 (Activation)    (None, 32, 32, 32)        0         
_________________________________________________________________
max_pooling2d_2 (MaxPooling2 (None, 16, 16, 32)        0         
_________________________________________________________________
conv2d_5 (Conv2D)            (None, 16, 16, 64)        18496     
_________________________________________________________________
activation_5 (Activation)    (None, 16, 16, 64)        0         
_________________________________________________________________
conv2d_6 (Conv2D)            (None, 16, 16, 64)        36928     
_________________________________________________________________
activation_6 (Activation)    (None, 16, 16, 64)        0         
_________________________________________________________________
up_sampling2d_1 (UpSampling2 (None, 32, 32, 64)        0         
_________________________________________________________________
conv2d_7 (Conv2D)            (None, 32, 32, 32)        18464     
_________________________________________________________________
activation_7 (Activation)    (None, 32, 32, 32)        0         
_________________________________________________________________
conv2d_8 (Conv2D)            (None, 32, 32, 32)        9248      
_________________________________________________________________
activation_8 (Activation)    (None, 32, 32, 32)        0         
_________________________________________________________________
up_sampling2d_2 (UpSampling2 (None, 64, 64, 32)        0         
_________________________________________________________________
conv2d_9 (Conv2D)            (None, 64, 64, 16)        4624      
_________________________________________________________________
activation_9 (Activation)    (None, 64, 64, 16)        0         
_________________________________________________________________
conv2d_10 (Conv2D)           (None, 64, 64, 16)        2320      
_________________________________________________________________
activation_10 (Activation)   (None, 64, 64, 16)        0         
_________________________________________________________________
conv2d_11 (Conv2D)           (None, 64, 64, 3)         435       
=================================================================
Total params: 107,171
Trainable params: 107,171
Non-trainable params: 0
_________________________________________________________________
Train on 82611 samples, validate on 40438 samples
Epoch 1/100
82500/82611 [============================>.] - ETA: 0s - loss: 0.5889 - acc: 0.0207Epoch 00000: val_loss improved from inf to 0.56670, saving model to ./weights.hdf5
…
