C:\Anaconda2\envs\deeplearning\python.exe C:/Dev/conditional-image-generation/convolution.py
Using Theano backend.
Using cuDNN version 5110 on context None
Mapped name None to device cuda: GeForce GTX 1070 (0000:01:00.0)
_________________________________________________________________
Layer (type)                 Output Shape              Param #   
=================================================================
input_1 (InputLayer)         (None, 64, 64, 3)         0         
_________________________________________________________________
conv2d_1 (Conv2D)            (None, 64, 64, 32)        896       
_________________________________________________________________
batch_normalization_1 (Batch (None, 64, 64, 32)        128       
_________________________________________________________________
leaky_re_lu_1 (LeakyReLU)    (None, 64, 64, 32)        0         
_________________________________________________________________
max_pooling2d_1 (MaxPooling2 (None, 32, 32, 32)        0         
_________________________________________________________________
conv2d_2 (Conv2D)            (None, 32, 32, 16)        4624      
_________________________________________________________________
batch_normalization_2 (Batch (None, 32, 32, 16)        64        
_________________________________________________________________
leaky_re_lu_2 (LeakyReLU)    (None, 32, 32, 16)        0         
_________________________________________________________________
max_pooling2d_2 (MaxPooling2 (None, 16, 16, 16)        0         
_________________________________________________________________
conv2d_3 (Conv2D)            (None, 16, 16, 16)        2320      
_________________________________________________________________
batch_normalization_3 (Batch (None, 16, 16, 16)        64        
_________________________________________________________________
leaky_re_lu_3 (LeakyReLU)    (None, 16, 16, 16)        0         
_________________________________________________________________
up_sampling2d_1 (UpSampling2 (None, 32, 32, 16)        0         
_________________________________________________________________
conv2d_4 (Conv2D)            (None, 32, 32, 32)        4640      
_________________________________________________________________
batch_normalization_4 (Batch (None, 32, 32, 32)        128       
_________________________________________________________________
leaky_re_lu_4 (LeakyReLU)    (None, 32, 32, 32)        0         
_________________________________________________________________
up_sampling2d_2 (UpSampling2 (None, 64, 64, 32)        0         
_________________________________________________________________
conv2d_5 (Conv2D)            (None, 64, 64, 3)         867       
=================================================================
Total params: 13,731
Trainable params: 13,539
Non-trainable params: 192
_________________________________________________________________
Train on 82611 samples, validate on 40438 samples
Epoch 1/30
82611/82611 [==============================] - 1511s - loss: 0.5852 - acc: 0.0209 - val_loss: 0.6288 - val_acc: 0.0205
Epoch 2/30
…
